V4PRO/src/strategy/dl/assets/dl_torch_v1_state_dict.pt (torch, 28681 bytes, 5 tensors)

net.0.weight f4 [32, 180]
00000000: 7669 693d 4e66 7d3d b60b 8fbc 9b39 8c3d
00000010: a0c8 85bc d06c 763c c2a2 14bd ce4b 333d
00000020: 0b91 863d 9ef9 5fbd 8dae 843d a88e 643c
00000030: 868e 613d f862 253c 0236 133d d86b 2cbc
00000040: 8a59 6b3d c080 343c 7486 0ebd c8a3 9b3c
00000050: 72a9 0cbd 7036 0fbc 9eff f7bc 9486 4a3d
00000060: 35fe 70bd d6be 0cbd b26a acbc 3291 37bd
00000070: 1085 e63b a5c4 96bd cfdb 893d 9fab 81bd
00000080: c2b2 6b3d c83a 4b3c 6043 c6bc a6a8 3c3d
00000090: d852 3e3c 62ab 763d 1080 053c c490 c0bc
000000a0: 9c0e a43c bc94 a5bc a47c 003d cf49 883d
000000b0: f67a 303d c377 05bd d63c 303d d080 5a3c
000000c0: 7a0a 1b3d a014 3abd c31b 97bd fae8 ebbc
000000d0: a02b 6abd 3e82 7a3d e4de af3c c0ea fc3c
000000e0: 901b c13c 40f3 a9ba baed 6e3d 12eb 58bd
000000f0: 10c8 993b c660 50bd 4447 bc3c 4047 d2bc
00000100: b018 bb3c c06c 7ebc 2636 7d3d 5af3 34bd
00000110: 3a14 36bd 0a17 36bd 894c 893d 507b cb3c
00000120: f3e2 923d 7ef4 7bbd a868 97bd 9dda 6ebd
00000130: da5e 4dbd d450 f73c bca3 da3c eead 7d3d
00000140: dea9 1dbd 0820 50bd fefb 213d 36ce f6bc
00000150: e24a 393d 0ee5 90bc f6a4 2e3d e634 6dbd
00000160: 8711 1abd 0028 ba3c a415 813c 3cad 9bbc
00000170: 8cfa 353d 568b 4f3d d364 5dbd 22fd 22bd
00000180: 59c6 8b3d ea08 cebc 5677 d8bc c8b3 93bd
00000190: c1d5 2ebd 7087 983c 6030 21bc 869c 5dbd
000001a0: 4029 e53a 168b 50bd bf81 81bd b91d 28bd
000001b0: a599 85bd 0e65 42bd d796 983d 08a7 663c
000001c0: 3429 bc3c 8d5f 8ebd f982 48bd 863d cbbc
000001d0: 80f5 3e3c ac51 86bd 6b8b 03bd b0c5 36bd
000001e0: 0098 5839 6034 e3bc 303f a9bb fee0 4ebd
000001f0: 118e 51bd 7e1c 32bd 5c01 d1bc 3af7 70bd
00000200: a6fb 7f3d d05c 72bc b156 833d 2c40 be3c
00000210: 3c43 81bd de46 533d 9200 a8bc a60e eabc
00000220: 316b 7dbd eec1 97bd acb2 ae3c 8261 85bc
00000230: 10b8 ed3c f98b 7abd 7aa9 623d e21a 60bd
00000240: 00de 52bc e011 7f3c 4e9c 1d3d 5678 763d
00000250: 930e 8b3d d013 72bd bcaa 993c 0751 03bd
00000260: f0d2 05bc 2c83 64bd a50a 8b3d d012 60bd
00000270: b42a 233d 6496 d63c ac6a c63c e00e 25bd
00000280: 1fc0 8a3d bc2d 863c 1818 1d3c c885 86bd
00000290: 1829 003d 3034 37bc 46dd 0bbd 051e 833d
000002a0: ac21 883c 01ea 28bd eb85 1abd 8046 69bb
000002b0: 6c77 2a3d 2007 9cbc fd31 2ebd 1818 d1bc
000002c0: 9014 64bd 1cc2 d93c 1250 6c3d b8b5 8fbd
000002d0: b0cf 8d3c e0b6 1d3d 1870 5d3c ba72 d9bc
000002e0: 0a59 1f3d 2270 203d 8051 e43c e896 56bc
000002f0: beaf a1bc e8a4 023c 7cba 57bc 48f5 b5bc
00000300: 0226 433d b92f 833d 10ca f1bb e0b5 88bc
00000310: 408f 8e3a 90d4 91bb 48cb 923c 041c ab3c
00000320: f8a4 8abd 3655 e1bc d78c 803d 50dc ed3c
00000330: e0f4 72bb d910 38bd 63c8 3abd e3bc 88bd
00000340: 0008 c7bc 6033 ce3c 1caa 423d 88f4 0c3d
00000350: dfee 86bd 3b98 37bd 70b9 40bc 33aa 933d
00000360: 88a7 303c 5c20 9ebc dc9c fc3c 8a90 e8bc
00000370: 129b 45bd 3ed5 5e3d c8d1 0abd e8ce 74bc
00000380: 15db 97bd ae53 4c3d e24d 673d cc87 de3c
00000390: 55e0 54bd c2a7 96bd dbf4 77bd 22a9 633d
000003a0: 4493 123d 6974 803d b4ef 1f3d 7889 9a3c
000003b0: 0057 3fba 4b2e 68bd 0cc9 82bd abc7 8ebd
000003c0: 64f4 f93c 37e4 15bd 94c4 75bc 54b3 2fbd
000003d0: a487 5ebc 17e1 56bd 847c 47bd 8c8a ca3c
000003e0: 8277 b5bc 3a79 3c3d 6ae2 c3bc dcf4 5fbd
000003f0: 3877 57bc 09fe 13bd 7ece babc 3352 91bd
0.05698534 0.061865143 -0.017461639 0.06846925 -0.016331017 0.015040591 -0.03628803 0.043773465
0.065706335 -0.054681413 0.064786054 0.0139500275 0.05506756 0.010094397 0.035940178 -0.010523759
0.057458438 0.0110170245 -0.034796193 0.018998995 -0.034341283 -0.008741006 -0.030273255 0.04944475
-0.05883618 -0.034361683 -0.02104697 -0.044816203 0.0070349053 -0.07361726 0.06731378 -0.06331562
0.057543524 0.012404151 -0.024202049 0.046059273 0.011616431 0.060222037 0.008148208 -0.02350653
0.020026498 -0.020212524 0.031368867 0.06654703 0.043086015 -0.032584917 0.043026768 0.013336375
0.037851788 -0.045429826 -0.07378342 -0.028797615 -0.05717051 0.061159365 0.021468587 0.030873656
0.023572713 -0.0012966171 0.058332182 -0.052958556 0.0046930388 -0.05087354 0.0229832 -0.02566874
0.02283892 -0.015528858 0.061819218 -0.04417739 -0.044452883 -0.044455566 0.06704051 0.024839073
0.071721934 -0.061512463 -0.073930085 -0.058313955 -0.050139286 0.030189909 0.026689403 0.06193345
-0.038492076 -0.050811797 0.03954696 -0.030127626 0.04523743 -0.017687347 0.042637788 -0.057911776
-0.03761437 0.022724152 0.01575739 -0.019003503 0.044428393 0.05066999 -0.05405123 -0.039792188
0.06824941 -0.025150735 -0.026424091 -0.07212025 -0.04268432 0.01861927 -0.009838194 -0.05410435
0.0017483607 -0.050913893 -0.06323575 -0.04104397 -0.06523446 -0.047459655 0.074506454 0.014077909
0.022968866 -0.069518186 -0.04895303 -0.02480961 0.011655211 -0.065585464 -0.03211538 -0.044622123
0.0002065599 -0.027734935 -0.0051650032 -0.050507538 -0.051160876 -0.043484204 -0.025513344 -0.058829524
0.06249585 -0.014792636 0.064130194 0.023223959 -0.06311652 0.051581256 -0.020508084 -0.028571438
-0.061869804 -0.07410036 0.021325432 -0.016281847 0.029018432 -0.061168645 0.055337407 -0.054713137
-0.012870312 0.015568227 0.038479142 0.060173355 0.06789889 -0.059100926 0.01875817 -0.032059696
-0.008167967 -0.055789158 0.0678914 -0.05470544 0.039835647 0.026194759 0.024220787 -0.04029739
0.067749254 0.01637923 0.009588264 -0.065684855 0.03128919 -0.011181876 -0.03414657 0.0640221
0.016617619 -0.04123879 -0.03772537 -0.0035595 0.041617796 -0.019046366 -0.04252814 -0.025524184
-0.055683672 0.026581816 0.05769355 -0.07017082 0.017310947 0.03850448 0.013515495 -0.026543964
0.038903274 0.03916944 0.027870893 -0.013097502 -0.01973712 0.007973887 -0.01316702 -0.022211686
0.04764367 0.06405587 -0.007378824 -0.016688287 0.0010876432 -0.0044503883 0.017919198 0.020887382
-0.067697465 -0.027506452 0.06276863 0.029035717 -0.0037072226 -0.044937942 -0.04560126 -0.06676652
-0.024295807 0.025170982 0.04752551 0.03441289 -0.0658853 -0.044822913 -0.011762962 0.07210197
0.01078213 -0.01930254 0.030836515 -0.028389234 -0.04824359 0.054402582 -0.03389147 -0.014941908
-0.074148335 0.04988449 0.05647076 0.027164362 -0.051971752 -0.07356216 -0.060536247 0.05558122
0.035784975 0.062722035 0.039046958 0.018864378 -0.0007299036 -0.056684773 -0.06386003 -0.069716774
0.030512042 -0.036594596 -0.015000481 -0.04289563 -0.013582144 -0.052460756 -0.04870273 0.024724267
-0.022151712 0.04601405 -0.023911674 -0.054676875 -0.013150983 -0.03613094 -0.022803541 -0.070957564

net.0.bias f4 [32]
00000000: ba5e 683d 258c 94bd 56bf 6c3d 1409 76bc
00000010: 8d2a 95bd 4696 473d 3117 2dbd 5293 09bd
00000020: 08a6 ca3c b008 483c fe1c 503d 1a06 55bd
00000030: 64db 253d fc20 1f3d 34f9 3c3d 603b cbbc
00000040: 1066 4f3c d0b9 b33c cfed 8f3d 8285 39bd
00000050: 2929 8cbd 3c0e 8abd e0bc 213c d807 68bd
00000060: 2810 62bc 59b7 0ebd e037 5d3c e856 58bd
00000070: 2045 3c3d dbf5 95bd b142 27bd 40fe 7b3c
0.056730963 -0.07253293 0.05779966 -0.015016813 -0.072835065 0.048727296 -0.042258445 -0.03358776
0.024737373 0.0122091025 0.0508089 -0.052007772 0.04049243 0.038849816 0.046136096 -0.024808586
0.012658611 0.021939188 0.0702778 -0.04529334 -0.06843788 -0.06740996 0.009871691 -0.056648105
-0.013797797 -0.034842823 0.013502091 -0.052817255 0.04596436 -0.07322284 -0.040835086 0.015380442

net.2.weight f4 [16, 32]
00000000: 560c 32be bc78 323d c971 87bd 33d9 b6bd
00000010: 95c2 013e cacc 69bd 802b 2b3d 0dcb 8bbd
00000020: ee5c a93d 21d9 243e 6dc4 2d3e 3aff dabd
00000030: def0 33be a02a fdbd 40fa 4b3d 3257 913d
00000040: d225 be3d 7236 9d3d 6f19 303e 7c45 09be
00000050: 64ea 0dbe f2be 62bd 6f80 0c3e e1ff 0abe
00000060: e5b7 073e 10f6 f03c 0ef2 df3d 3158 333e
00000070: f130 303e 9dc7 2d3e 7cb0 31bd f57c 9abd
00000080: c2b2 993d 735e 1a3e 6039 903b 9066 2bbd
00000090: 0839 eabc 7039 81bd 72d6 ad3d bc09 34be
000000a0: 6b08 1a3e 20b9 d4bb 8a78 dbbd f023 81bd
000000b0: dc3c debd 964a 1dbe 78b7 913c ac71 24bd
000000c0: 1384 a2bd 60a1 f6bc 48aa c7bc 6680 9f3d
000000d0: b56d 12be 80d1 87bb c01b 1ebb f0fa 13be
000000e0: 03dd 263e f9a0 abbd fb9d 0f3e a5bf 0a3e
000000f0: c0e1 9c3b 3dc9 063e 7837 08be 502f 9fbc
00000100: 3e52 15be 3b65 dcbd 70c4 643d 25e3 063e
00000110: f5d7 d6bd 0149 92bd defe cabd f0a2 7bbc
00000120: be5b 16be 1947 0fbe 0c87 1dbd 9fec 2d3e
00000130: 7077 f93c 67b3 96bd c206 f23d 3b9a 053e
00000140: 9a6e f73d 00a9 d73a 50e3 9cbc b627 eb3d
00000150: 729d c23d 5f41 093e 7d5f 023e 5887 4dbd
00000160: 0952 193e 74aa 0d3d 4338 343e cb14 343e
00000170: fdd0 173e defe f03d b921 0e3e 162a aabd
00000180: 9cf0 8cbd 30bf 28bd 434d b9bd 1bff 043e
00000190: b860 873c b063 37bd 9434 a2bd fd29 21be
000001a0: 20d0 4f3c 731f 1f3e 060d ee3d 3d79 0f3e
000001b0: ca5b f73d 7e58 983d 60ce a6bb e0e9 05be
000001c0: c117 053e dec2 febd cfb4 d9bd 5646 913d
000001d0: 5ed4 c63d 8a66 bcbd be1e e53d 0569 29be
000001e0: 648c 2c3d fad3 9f3d 607e 063d c0b8 cbbd
000001f0: 3580 f4bd bbad 103e b484 1f3d bd88 9bbd
00000200: 355b 2e3e 4c23 17bd 70e5 05bd 705f 3a3d
00000210: 2fb5 163e 5929 a1bd 00a1 693a 2089 a2bd
00000220: 7efb a3bd d066 c5bc 00f8 3eb9 fe1f c23d
00000230: e035 07be c617 d23d d36c 0d3e 4017 a5bc
00000240: 00b9 81bc 9c8f 323d 0dba 25be 8b32 053e
00000250: e854 fdbc 00f7 e83b c6a3 ab3d 26c0 963d
00000260: 4584 a7bd 2ef6 04be 6ba1 2ebe 0c28 17be
00000270: dc36 18bd 8f87 0cbe 7039 92bc 4445 bfbd
00000280: ae24 cd3d 52a3 f73d b124 193e 6468 edbd
00000290: bf7e ffbd 2c2e 7b3d f459 25bd 1948 093e
000002a0: 0c11 26be a7dd 273e df1d fbbd 8429 11be
000002b0: 9090 99bc 8d62 a0bd ea39 e4bd dab0 ce3d
000002c0: 2bce 0b3e 7a91 c93d 50c3 b03c 1064 d0bc
000002d0: 8b88 c5bd a788 2c3e a52f c5bd b0b6 1ebe
000002e0: b194 193e 4095 69bc f242 f33d 8054 70bd
000002f0: 9ffd 0c3e a74c ffbd 72de d93d bbe3 0c3e
00000300: 00f8 21bb 5617 f03d 008e cd3b ccbc 25be
00000310: 6a9b 9e3d 72b9 0cbe c00a b63b dfd4 22be
00000320: 7f5f acbd 72bf 57bd ddb1 8cbd 7450 32be
00000330: d2d1 b3bd 59ba 27be b955 17be 5a99 34be
00000340: f58e d0bd 0c41 22bd 6d13 233e f2b2 febd
00000350: 57a7 09be 6e5c 13be bb59 293e 8832 b9bc
00000360: d4a5 40bd c680 c63d 03e9 d5bd 945c 3fbd
00000370: f1ea 253e aed3 c03d 276c 0cbe ec01 47bd
00000380: 5835 8e3c 88ce 823d 0290 a6bd 127f fd3d
00000390: 802c 353b 7083 1cbe f005 423d d8b9 2fbe
000003a0: b0a3 493c 8408 33be 0c8a 4ebd 8847 28bd
000003b0: 949a 22be 70ce 4cbd 4085 c23b 60fa cbbd
000003c0: 3883 cd3c fe2d bf3d 80e9 aa3c 63ae 31be
000003d0: 006f 12ba d7aa a9bd 4c64 4e3d 533e 11be
000003e0: 486f fabd a04c c0bb 5ac4 d03d a070 41bd
000003f0: 90ba 18bc e06a 8fbc 5aa3 0dbe 2026 65bc
-0.17387518 0.043572173 -0.066135 -0.08928146 0.12671883 -0.057080068 0.04178953 -0.06825838
0.08269678 0.16098453 0.16969462 -0.10693212 -0.17572352 -0.12361646 0.049799204 0.07096709
0.092845574 0.076764 0.17197202 -0.13405412 -0.13858944 -0.05535788 0.13720869 -0.13574173
0.13253744 0.029414207 0.1093484 0.17514111 0.1720617 0.16970678 -0.0433812 -0.07543365
0.075047985 0.15075092 0.004401371 -0.041845858 -0.028591648 -0.063097835 0.08488168 -0.17581838
0.15042274 -0.006491795 -0.107163504 -0.06305683 -0.10851452 -0.15360484 0.01778768 -0.04014747
-0.079353474 -0.030106246 -0.024373189 0.07788162 -0.14299662 -0.0041448474 -0.0024125427 -0.14451194
0.16295247 -0.083803125 0.14025109 0.13549669 0.0047876537 0.13162704 -0.1330241 -0.01943174
-0.14582154 -0.10761496 0.0558514 0.13172586 -0.10490409 -0.07142831 -0.09911893 -0.015358672
-0.14683434 -0.13991965 -0.03845887 0.16984795 0.03045246 -0.07358437 0.11817695 0.13047116
0.120816424 0.0016453564 -0.01915136 0.11482184 0.095026866 0.13403843 0.12731738 -0.050177902
0.149727 0.034586385 0.17599587 0.17586057 0.14825816 0.11767362 0.13880052 -0.083088085
-0.0688183 -0.041197956 -0.0904794 0.1298794 0.016525611 -0.044772804 -0.07920185 -0.15738674
0.012683898 0.1553934 0.11623578 0.14011092 0.12078054 0.074387535 -0.00509052 -0.13077497
0.12997343 -0.12439512 -0.106301896 0.07093494 0.097084746 -0.09199245 0.11187504 -0.16543968
0.042126074 0.07804103 0.032835364 -0.09947348 -0.11938516 0.14128773 0.038944915 -0.0759444
0.1702698 -0.036898896 -0.03268951 0.045501173 0.14717554 -0.078692146 0.00089122355 -0.07936311
-0.08006953 -0.024096876 -0.00018212199 0.09478758 -0.13204145 0.10258441 0.13811044 -0.020152688
-0.015835285 0.043593988 -0.16184254 0.13007562 -0.030924276 0.007109523 0.08380847 0.07360868
-0.08179525 -0.12984535 -0.17053764 -0.1476137 -0.037161693 -0.13723586 -0.017849654 -0.09339383
0.10016762 0.12091698 0.14955403 -0.115921766 -0.12475347 0.06132333 -0.04036899 0.1340641
-0.1621744 0.16393147 -0.12261557 -0.14175993 -0.01874569 -0.07831297 -0.11143859 0.100923255
0.13652866 0.098422006 0.021577507 -0.025438339 -0.09645184 0.16849004 -0.09628228 -0.15499377
0.14998128 -0.014256775 0.11878003 -0.058674335 0.13768624 -0.12465792 0.10638131 0.13758747
-0.002471447 0.11723201 0.0062730312 -0.16185302 0.07744487 -0.13742617 0.0055554807 -0.15901516
-0.08416652 -0.05267281 -0.06869862 -0.17413503 -0.087802544 -0.1637968 -0.14778794 -0.17636624
-0.10183517 -0.039612815 0.15925379 -0.12436475 -0.13442741 -0.14390728 0.16538136 -0.022607103
-0.047033146 0.0969253 -0.10444834 -0.04671915 0.16202904 0.09415375 -0.13713132 -0.048585817
0.01735942 0.06387049 -0.08132936 0.12377752 0.0027644932 -0.15284514 0.047368944 -0.17160738
0.012307093 -0.17483717 -0.05042462 -0.041083843 -0.1587928 -0.05000156 0.005936295 -0.099598646
0.025086984 0.09334944 0.020863295 -0.1735168 -0.00055859983 -0.08284538 0.05038862 -0.14183931
-0.122282565 -0.0058685094 0.10193701 -0.04722655 -0.009321824 -0.017507017 -0.13831845 -0.0139861405

net.2.bias f4 [16]
00000000: 24e1 0d3d 3004 fdbc 0049 45bc c35a 003e
00000010: 5fdc 96bd c9e6 283e f405 c6bd 47b5 273e
00000020: 5602 883d 7a5e 913d c4a1 25bd 5453 45bd
00000030: c068 04be e797 2dbe 6a7b fd3d 2f98 2f3e
0.03463854 -0.030885786 -0.01204133 0.12534623 -0.07366251 0.16494288 -0.09669104 0.16377746
0.066410705 0.07098098 -0.040437475 -0.04817517 -0.12930584 -0.16952477 0.12377055 0.17147897

net.4.weight f4 [1, 16]
00000000: 28d2 923d 1c45 c8bd c0e5 603d 8066 19bc
00000010: fa49 5dbe 5606 4dbe fcc3 b13d e87d 95bd
00000020: 208e 73bd 2c59 1abe d4cc e13d 522f 01be
00000030: f482 a3bd b6f7 083e 9c19 763e 0039 643e
0.071689904 -0.097788066 0.054906607 -0.009362817 -0.21610251 -0.20021948 0.08679959 -0.07299405
-0.059461713 -0.15073079 0.11025396 -0.12615708 -0.07983962 0.13375744 0.24033207 0.22287369
